…
          validation_freq: 5                             	[default: 10]
           validation_set: split                         	[default: test]
                  verbose: True                          	[default: False]
             weight_decay: 0                             
----------------- End -------------------
dataset [BaseDataset] was created
#training samples = 7186
#validation samples = 500
cpu
initialize network with xavier
initialize network with xavier
initialize network with xavier
model [DHCModel] was created
---------- Networks initialized -------------
LHC(
  (encoder): Sequential(
    (0): Conv2d(3, 32, kernel_size=(3, 3), stride=(1, 1), padding=(1, 1), padding_mode=reflect)
    (1): ReLU(inplace=True)
    (2): AvgPool2d(kernel_size=2, stride=2, padding=0)
    (3): Conv2d(32, 64, kernel_size=(3, 3), stride=(1, 1), padding=(1, 1), padding_mode=reflect)
    (4): ReLU(inplace=True)
    (5): Conv2d(64, 64, kernel_size=(3, 3), stride=(1, 1), padding=(1, 1), padding_mode=reflect)
    (6): ReLU(inplace=True)
    (7): AdaptiveAvgPool2d(output_size=(32, 32))
  )
  (rule_mlp): Sequential(
    (0): Conv1d(64, 32, kernel_size=(1,), stride=(1,))
    (1): ReLU()
    (2): Conv1d(32, 64, kernel_size=(1,), stride=(1,))
    (3): ReLU()
  )
  (velocity_mlp): Sequential(
    (0): Conv1d(64, 32, kernel_size=(1,), stride=(1,))
    (1): ReLU()
    (2): Conv1d(32, 2, kernel_size=(1,), stride=(1,))
    (3): Tanh()
  )
  (decoder): Sequential(
    (0): Upsample(scale_factor=2.0, mode=nearest)
    (1): Conv2d(64, 64, kernel_size=(3, 3), stride=(1, 1), padding=(1, 1), padding_mode=reflect)
    (2): ReLU(inplace=True)
    (3): Conv2d(64, 32, kernel_size=(3, 3), stride=(1, 1), padding=(1, 1), padding_mode=reflect)
    (4): ReLU(inplace=True)
    (5): Upsample(scale_factor=2.0, mode=nearest)
    (6): Conv2d(32, 3, kernel_size=(3, 3), stride=(1, 1), padding=(1, 1), padding_mode=reflect)
  )
)
[Network netG] Total number of parameters : 0.119 M
SpatialDiscriminator(
  (pre_conv): Sequential(
    (0): SpectralNorm(
      (module): Conv2d(3, 16, kernel_size=(3, 3), stride=(1, 1), padding=(1, 1))
    )
    (1): ReLU()
    (2): SpectralNorm(
      (module): Conv2d(16, 16, kernel_size=(3, 3), stride=(1, 1), padding=(1, 1))
    )
    (3): AvgPool2d(kernel_size=2, stride=2, padding=0)
  )
  (pre_skip): SpectralNorm(
    (module): Conv2d(3, 16, kernel_size=(1, 1), stride=(1, 1))
  )
  (conv1): GBlock(
    (conv0): SpectralNorm(
      (module): Conv2d(16, 32, kernel_size=[3, 3], stride=(1, 1), padding=(1, 1))
    )
    (conv1): SpectralNorm(
      (module): Conv2d(32, 32, kernel_size=[3, 3], stride=(1, 1), padding=(1, 1))
    )
    (conv_sc): SpectralNorm(
      (module): Conv2d(16, 32, kernel_size=(1, 1), stride=(1, 1))
    )
  )
  (attn): SelfAttention(
    (query_conv): Conv2d(32, 4, kernel_size=(1, 1), stride=(1, 1))
    (key_conv): Conv2d(32, 4, kernel_size=(1, 1), stride=(1, 1))
    (value_conv): Conv2d(32, 32, kernel_size=(1, 1), stride=(1, 1))
    (softmax): Softmax(dim=-1)
  )
  (conv2): Sequential(
    (0): GBlock(
      (conv0): SpectralNorm(
        (module): Conv2d(32, 64, kernel_size=[3, 3], stride=(1, 1), padding=(1, 1))
      )
      (conv1): SpectralNorm(
        (module): Conv2d(64, 64, kernel_size=[3, 3], stride=(1, 1), padding=(1, 1))
      )
      (conv_sc): SpectralNorm(
        (module): Conv2d(32, 64, kernel_size=(1, 1), stride=(1, 1))
      )
    )
    (1): GBlock(
      (conv0): SpectralNorm(
        (module): Conv2d(64, 128, kernel_size=[3, 3], stride=(1, 1), padding=(1, 1))
      )
      (conv1): SpectralNorm(
        (module): Conv2d(128, 128, kernel_size=[3, 3], stride=(1, 1), padding=(1, 1))
      )
      (conv_sc): SpectralNorm(
        (module): Conv2d(64, 128, kernel_size=(1, 1), stride=(1, 1))
      )
    )
    (2): GBlock(
      (conv0): SpectralNorm(
        (module): Conv2d(128, 128, kernel_size=[3, 3], stride=(1, 1), padding=(1, 1))
      )
      (conv1): SpectralNorm(
        (module): Conv2d(128, 128, kernel_size=[3, 3], stride=(1, 1), padding=(1, 1))
      )
      (conv_sc): SpectralNorm(
        (module): Conv2d(128, 128, kernel_size=(1, 1), stride=(1, 1))
      )
    )
  )
  (linear): SpectralNorm(
    (module): Linear(in_features=128, out_features=1, bias=True)
  )
)
[Network netDs] Total number of parameters : 0.625 M
TemporalDiscriminator(
  (pre_conv): Sequential(
    (0): SpectralNorm(
      (module): Conv3d(3, 16, kernel_size=(3, 3, 3), stride=(1, 1, 1), padding=(1, 1, 1))
    )
    (1): ReLU()
    (2): SpectralNorm(
      (module): Conv3d(16, 16, kernel_size=(3, 3, 3), stride=(1, 1, 1), padding=(1, 1, 1))
    )
    (3): AvgPool3d(kernel_size=2, stride=2, padding=0)
  )
  (pre_skip): SpectralNorm(
    (module): Conv3d(3, 16, kernel_size=(1, 1, 1), stride=(1, 1, 1))
  )
  (res3d): Res3dBlock(
    (conv0): SpectralNorm(
      (module): Conv3d(16, 32, kernel_size=[3, 3, 3], stride=(1, 1, 1), padding=(1, 1, 1))
    )
    (conv1): SpectralNorm(
      (module): Conv3d(32, 32, kernel_size=[3, 3, 3], stride=(1, 1, 1), padding=(1, 1, 1))
    )
    (conv_sc): SpectralNorm(
      (module): Conv3d(16, 32, kernel_size=(1, 1, 1), stride=(1, 1, 1))
    )
  )
  (self_attn): SelfAttention(
    (query_conv): Conv2d(32, 4, kernel_size=(1, 1), stride=(1, 1))
    (key_conv): Conv2d(32, 4, kernel_size=(1, 1), stride=(1, 1))
    (value_conv): Conv2d(32, 32, kernel_size=(1, 1), stride=(1, 1))
    (softmax): Softmax(dim=-1)
  )
  (conv): Sequential(
    (0): GBlock(
      (conv0): SpectralNorm(
        (module): Conv2d(32, 64, kernel_size=[3, 3], stride=(1, 1), padding=(1, 1))
      )
      (conv1): SpectralNorm(
        (module): Conv2d(64, 64, kernel_size=[3, 3], stride=(1, 1), padding=(1, 1))
      )
      (conv_sc): SpectralNorm(
        (module): Conv2d(32, 64, kernel_size=(1, 1), stride=(1, 1))
      )
    )
    (1): GBlock(
      (conv0): SpectralNorm(
        (module): Conv2d(64, 128, kernel_size=[3, 3], stride=(1, 1), padding=(1, 1))
      )
      (conv1): SpectralNorm(
        (module): Conv2d(128, 128, kernel_size=[3, 3], stride=(1, 1), padding=(1, 1))
      )
      (conv_sc): SpectralNorm(
        (module): Conv2d(64, 128, kernel_size=(1, 1), stride=(1, 1))
      )
    )
    (2): GBlock(
      (conv0): SpectralNorm(
        (module): Conv2d(128, 128, kernel_size=[3, 3], stride=(1, 1), padding=(1, 1))
      )
      (conv1): SpectralNorm(
        (module): Conv2d(128, 128, kernel_size=[3, 3], stride=(1, 1), padding=(1, 1))
      )
      (conv_sc): SpectralNorm(
        (module): Conv2d(128, 128, kernel_size=(1, 1), stride=(1, 1))
      )
    )
  )
  (linear): SpectralNorm(
    (module): Linear(in_features=128, out_features=1, bias=True)
  )
)
[Network netDt] Total number of parameters : 0.659 M
-----------------------------------------------
create web directory /mnt/raid/patrickradner/checkpoints/river_relaxing_lhc_lhc_128/web...
----------------0-----------
x:  0.0 3.4686036087805405e-06
v:  -1.674827811160018e-13 -3.3390323383834797e-14
p:  0.0 0.0 0.0 0.0
d:  0.0 0.0 
k:  0.022097086533904076 0.022097086533904076 
…
