…
                  verbose: False                         
             weight_decay: 0                             
----------------- End -------------------
nframes: 25
dataset [BaseDataset] was created
nframes: 25
dataset [BaseDataset] was created
#training samples = 7480
#validation samples = 206
cpu
initialize network with xavier
initialize network with xavier
initialize network with xavier
model [DvdGanModel] was created
loading the module from /mnt/raid/patrickradner/checkpoints/river_relaxing_dvdgan_trajgru_128_3/latest_netG.pth
DvdConditionalGenerator(
  (encoder): ModuleList(
    (0): Sequential(
      (0): SpectralNorm(
        (module): Conv2d(3, 32, kernel_size=(3, 3), stride=(1, 1), padding=(1, 1))
      )
      (1): GResBlock(
        (conv0): SpectralNorm(
          (module): Conv2d(32, 64, kernel_size=[3, 3], stride=(1, 1), padding=(1, 1))
        )
        (conv1): SpectralNorm(
          (module): Conv2d(64, 64, kernel_size=[3, 3], stride=(1, 1), padding=(1, 1))
        )
        (conv_sc): SpectralNorm(
          (module): Conv2d(32, 64, kernel_size=(1, 1), stride=(1, 1))
        )
        (CBNorm1): BatchNorm2d(32, eps=1e-05, momentum=0.1, affine=True, track_running_stats=True)
        (CBNorm2): BatchNorm2d(64, eps=1e-05, momentum=0.1, affine=True, track_running_stats=True)
      )
    )
    (1): GResBlock(
      (conv0): SpectralNorm(
        (module): Conv2d(64, 128, kernel_size=[3, 3], stride=(1, 1), padding=(1, 1))
      )
      (conv1): SpectralNorm(
        (module): Conv2d(128, 128, kernel_size=[3, 3], stride=(1, 1), padding=(1, 1))
      )
      (conv_sc): SpectralNorm(
        (module): Conv2d(64, 128, kernel_size=(1, 1), stride=(1, 1))
      )
      (CBNorm1): BatchNorm2d(64, eps=1e-05, momentum=0.1, affine=True, track_running_stats=True)
      (CBNorm2): BatchNorm2d(128, eps=1e-05, momentum=0.1, affine=True, track_running_stats=True)
    )
    (2): GResBlock(
      (conv0): SpectralNorm(
        (module): Conv2d(128, 256, kernel_size=[3, 3], stride=(1, 1), padding=(1, 1))
      )
      (conv1): SpectralNorm(
        (module): Conv2d(256, 256, kernel_size=[3, 3], stride=(1, 1), padding=(1, 1))
      )
      (conv_sc): SpectralNorm(
        (module): Conv2d(128, 256, kernel_size=(1, 1), stride=(1, 1))
      )
      (CBNorm1): BatchNorm2d(128, eps=1e-05, momentum=0.1, affine=True, track_running_stats=True)
      (CBNorm2): BatchNorm2d(256, eps=1e-05, momentum=0.1, affine=True, track_running_stats=True)
    )
  )
  (conv): ModuleList(
    (0): ConvGRU(
      (cells): ModuleList(
        (0): TrajGRU(
          (i2h): Conv2d(256, 768, kernel_size=(3, 3), stride=(1, 1), padding=(1, 1))
          (i2f_conv1): Conv2d(256, 32, kernel_size=(5, 5), stride=(1, 1), padding=(2, 2))
          (h2f_conv1): Conv2d(256, 32, kernel_size=(5, 5), stride=(1, 1), padding=(2, 2))
          (flows_conv): Conv2d(32, 10, kernel_size=(5, 5), stride=(1, 1), padding=(2, 2))
          (ret): Conv2d(1280, 768, kernel_size=(1, 1), stride=(1, 1))
        )
      )
    )
    (1): GResBlock(
      (conv0): SpectralNorm(
        (module): Conv2d(256, 256, kernel_size=[3, 3], stride=(1, 1), padding=(1, 1))
      )
      (conv1): SpectralNorm(
        (module): Conv2d(256, 256, kernel_size=[3, 3], stride=(1, 1), padding=(1, 1))
      )
      (conv_sc): SpectralNorm(
        (module): Conv2d(256, 256, kernel_size=(1, 1), stride=(1, 1))
      )
      (CBNorm1): BatchNorm2d(256, eps=1e-05, momentum=0.1, affine=True, track_running_stats=True)
      (CBNorm2): BatchNorm2d(256, eps=1e-05, momentum=0.1, affine=True, track_running_stats=True)
    )
    (2): GResBlock(
      (conv0): SpectralNorm(
        (module): Conv2d(256, 128, kernel_size=[3, 3], stride=(1, 1), padding=(1, 1))
      )
      (conv1): SpectralNorm(
        (module): Conv2d(128, 128, kernel_size=[3, 3], stride=(1, 1), padding=(1, 1))
      )
      (conv_sc): SpectralNorm(
        (module): Conv2d(256, 128, kernel_size=(1, 1), stride=(1, 1))
      )
      (CBNorm1): BatchNorm2d(256, eps=1e-05, momentum=0.1, affine=True, track_running_stats=True)
      (CBNorm2): BatchNorm2d(128, eps=1e-05, momentum=0.1, affine=True, track_running_stats=True)
    )
    (3): ConvGRU(
      (cells): ModuleList(
        (0): TrajGRU(
          (i2h): Conv2d(128, 384, kernel_size=(3, 3), stride=(1, 1), padding=(1, 1))
          (i2f_conv1): Conv2d(128, 32, kernel_size=(5, 5), stride=(1, 1), padding=(2, 2))
          (h2f_conv1): Conv2d(128, 32, kernel_size=(5, 5), stride=(1, 1), padding=(2, 2))
          (flows_conv): Conv2d(32, 10, kernel_size=(5, 5), stride=(1, 1), padding=(2, 2))
          (ret): Conv2d(640, 384, kernel_size=(1, 1), stride=(1, 1))
        )
      )
    )
    (4): GResBlock(
      (conv0): SpectralNorm(
        (module): Conv2d(128, 128, kernel_size=[3, 3], stride=(1, 1), padding=(1, 1))
      )
      (conv1): SpectralNorm(
        (module): Conv2d(128, 128, kernel_size=[3, 3], stride=(1, 1), padding=(1, 1))
      )
      (conv_sc): SpectralNorm(
        (module): Conv2d(128, 128, kernel_size=(1, 1), stride=(1, 1))
      )
      (CBNorm1): BatchNorm2d(128, eps=1e-05, momentum=0.1, affine=True, track_running_stats=True)
      (CBNorm2): BatchNorm2d(128, eps=1e-05, momentum=0.1, affine=True, track_running_stats=True)
    )
    (5): GResBlock(
      (conv0): SpectralNorm(
        (module): Conv2d(128, 64, kernel_size=[3, 3], stride=(1, 1), padding=(1, 1))
      )
      (conv1): SpectralNorm(
        (module): Conv2d(64, 64, kernel_size=[3, 3], stride=(1, 1), padding=(1, 1))
      )
      (conv_sc): SpectralNorm(
        (module): Conv2d(128, 64, kernel_size=(1, 1), stride=(1, 1))
      )
      (CBNorm1): BatchNorm2d(128, eps=1e-05, momentum=0.1, affine=True, track_running_stats=True)
      (CBNorm2): BatchNorm2d(64, eps=1e-05, momentum=0.1, affine=True, track_running_stats=True)
    )
    (6): ConvGRU(
      (cells): ModuleList(
        (0): TrajGRU(
          (i2h): Conv2d(64, 192, kernel_size=(3, 3), stride=(1, 1), padding=(1, 1))
          (i2f_conv1): Conv2d(64, 32, kernel_size=(5, 5), stride=(1, 1), padding=(2, 2))
          (h2f_conv1): Conv2d(64, 32, kernel_size=(5, 5), stride=(1, 1), padding=(2, 2))
          (flows_conv): Conv2d(32, 10, kernel_size=(5, 5), stride=(1, 1), padding=(2, 2))
          (ret): Conv2d(320, 192, kernel_size=(1, 1), stride=(1, 1))
        )
      )
    )
    (7): GResBlock(
      (conv0): SpectralNorm(
        (module): Conv2d(64, 64, kernel_size=[3, 3], stride=(1, 1), padding=(1, 1))
      )
      (conv1): SpectralNorm(
        (module): Conv2d(64, 64, kernel_size=[3, 3], stride=(1, 1), padding=(1, 1))
      )
      (conv_sc): SpectralNorm(
        (module): Conv2d(64, 64, kernel_size=(1, 1), stride=(1, 1))
      )
      (CBNorm1): BatchNorm2d(64, eps=1e-05, momentum=0.1, affine=True, track_running_stats=True)
      (CBNorm2): BatchNorm2d(64, eps=1e-05, momentum=0.1, affine=True, track_running_stats=True)
    )
    (8): GResBlock(
      (conv0): SpectralNorm(
        (module): Conv2d(64, 32, kernel_size=[3, 3], stride=(1, 1), padding=(1, 1))
      )
      (conv1): SpectralNorm(
        (module): Conv2d(32, 32, kernel_size=[3, 3], stride=(1, 1), padding=(1, 1))
      )
      (conv_sc): SpectralNorm(
        (module): Conv2d(64, 32, kernel_size=(1, 1), stride=(1, 1))
      )
      (CBNorm1): BatchNorm2d(64, eps=1e-05, momentum=0.1, affine=True, track_running_stats=True)
      (CBNorm2): BatchNorm2d(32, eps=1e-05, momentum=0.1, affine=True, track_running_stats=True)
    )
  )
  (colorize): SpectralNorm(
    (module): Conv2d(32, 3, kernel_size=(3, 3), stride=(1, 1), padding=(1, 1))
  )
) odict_keys(['module.encoder.0.0.module.bias', 'module.encoder.0.0.module.weight_u', 'module.encoder.0.0.module.weight_v', 'module.encoder.0.0.module.weight_bar', 'module.encoder.0.1.conv0.module.bias', 'module.encoder.0.1.conv0.module.weight_u', 'module.encoder.0.1.conv0.module.weight_v', 'module.encoder.0.1.conv0.module.weight_bar', 
…
